…
Running solution [[0], [0, 1, 0, 3, 3], [0, 1], [0, 1, 1], [0, 0, 0, 0, 0, 0], [0, 0], [0], [3, 4, 3, 2, 3, 3], [3, 6, 5, 5, 5, 2], [], [], [2, 0, 2, 2, 1, 2], [0]]
[[0], [0, 1, 0, 3, 3], [0, 1], [0, 1, 1], [0, 0, 0, 0, 0, 0], [0, 0], [0], [3, 4, 3, 2, 3, 3], [3, 6, 5, 5, 5, 2], [], [], [2, 0, 2, 2, 1, 2], [0]]
Model: "model_1"
__________________________________________________________________________________________________
Layer (type)                    Output Shape         Param #     Connected to                     
==================================================================================================
input_1 (InputLayer)            (None, 256, 256, 1)  0                                            
__________________________________________________________________________________________________
conv2d_1 (Conv2D)               (None, 256, 256, 16) 272         input_1[0][0]                    
__________________________________________________________________________________________________
conv2d_2 (Conv2D)               (None, 256, 256, 32) 25120       conv2d_1[0][0]                   
__________________________________________________________________________________________________
dropout_1 (Dropout)             (None, 256, 256, 32) 0           conv2d_2[0][0]                   
__________________________________________________________________________________________________
conv2d_3 (Conv2D)               (None, 256, 256, 16) 18448       dropout_1[0][0]                  
__________________________________________________________________________________________________
max_pooling2d_1 (MaxPooling2D)  (None, 128, 128, 16) 0           conv2d_3[0][0]                   
__________________________________________________________________________________________________
conv2d_4 (Conv2D)               (None, 128, 128, 8)  4616        max_pooling2d_1[0][0]            
__________________________________________________________________________________________________
max_pooling2d_2 (MaxPooling2D)  (None, 64, 64, 8)    0           conv2d_4[0][0]                   
__________________________________________________________________________________________________
conv2d_5 (Conv2D)               (None, 64, 64, 16)   4624        max_pooling2d_2[0][0]            
__________________________________________________________________________________________________
conv2d_6 (Conv2D)               (None, 64, 64, 16)   2320        conv2d_5[0][0]                   
__________________________________________________________________________________________________
up_sampling2d_1 (UpSampling2D)  (None, 128, 128, 16) 0           conv2d_6[0][0]                   
__________________________________________________________________________________________________
conv2d_7 (Conv2D)               (None, 128, 128, 8)  520         up_sampling2d_1[0][0]            
__________________________________________________________________________________________________
concatenate_1 (Concatenate)     (None, 128, 128, 16) 0           conv2d_4[0][0]                   
                                                                 conv2d_7[0][0]                   
__________________________________________________________________________________________________
conv2d_8 (Conv2D)               (None, 128, 128, 8)  4616        concatenate_1[0][0]              
__________________________________________________________________________________________________
up_sampling2d_2 (UpSampling2D)  (None, 256, 256, 8)  0           conv2d_8[0][0]                   
__________________________________________________________________________________________________
conv2d_9 (Conv2D)               (None, 256, 256, 16) 528         up_sampling2d_2[0][0]            
__________________________________________________________________________________________________
concatenate_2 (Concatenate)     (None, 256, 256, 32) 0           conv2d_3[0][0]                   
                                                                 conv2d_9[0][0]                   
__________________________________________________________________________________________________
conv2d_10 (Conv2D)              (None, 256, 256, 16) 18448       concatenate_2[0][0]              
__________________________________________________________________________________________________
dropout_2 (Dropout)             (None, 256, 256, 16) 0           conv2d_10[0][0]                  
__________________________________________________________________________________________________
conv2d_11 (Conv2D)              (None, 256, 256, 32) 25120       dropout_2[0][0]                  
__________________________________________________________________________________________________
conv2d_12 (Conv2D)              (None, 256, 256, 16) 8208        conv2d_11[0][0]                  
__________________________________________________________________________________________________
conv2d_13 (Conv2D)              (None, 256, 256, 2)  290         conv2d_12[0][0]                  
__________________________________________________________________________________________________
conv2d_14 (Conv2D)              (None, 256, 256, 1)  3           conv2d_13[0][0]                  
==================================================================================================
Total params: 113,133
Trainable params: 113,133
Non-trainable params: 0
__________________________________________________________________________________________________
Namespace(batch=5, dataset='datasets/membrane.pickle', epochs=500, folder='memb2', multip=1, predict=1, seed=None, solution='[[0],[0,1,0,3,3],[0,1],[0,1,1],[0,0,0,0,0,0],[0,0],[0],[3,4,3,2,3,3],[3,6,5,5,5,2],[],[],[2,0,2,2,1,2],[0]]', test=None, timelimit=3600, train=None, training=1, valid=None, verbose=1, workers=4)
…
