…
<10/27/18 02:49:19> evals: 397/400 	best so far: [ 63 209 120 138 130 117]	fitness: 0.7137
<10/27/18 02:53:11> evals: 398/400 	best so far: [ 63 209 120 138 130 117]	fitness: 0.7137
<10/27/18 02:57:02> evals: 399/400 	best so far: [ 63 209 120 138 130 117]	fitness: 0.7137
<10/27/18 02:57:02> evals: 400/400 	best so far: [ 63 209 120 138 130 117]	fitness: 0.7137
--best solution--
0.7137 [ 63 209 120 138 130 117]
_________________________________________________________________
Layer (type)                 Output Shape              Param #   
=================================================================
conv2d_968 (Conv2D)          (None, 30, 30, 32)        896       
_________________________________________________________________
conv2d_969 (Conv2D)          (None, 28, 28, 64)        18496     
_________________________________________________________________
conv2d_970 (Conv2D)          (None, 26, 26, 64)        36928     
_________________________________________________________________
conv2d_971 (Conv2D)          (None, 24, 24, 64)        36928     
_________________________________________________________________
conv2d_972 (Conv2D)          (None, 22, 22, 64)        36928     
_________________________________________________________________
dropout_120 (Dropout)        (None, 22, 22, 64)        0         
_________________________________________________________________
flatten_289 (Flatten)        (None, 30976)             0         
_________________________________________________________________
dense_490 (Dense)            (None, 10)                309770    
=================================================================
Total params: 439,946
Trainable params: 439,946
Non-trainable params: 0
_________________________________________________________________
--testing--
loss: 0.8382540719985961	accuracy: 0.7076

########################################################################
# End of output for job 189248.c009
# Date: Sat Oct 27 02:57:18 PDT 2018
…
