…
<10/26/18 22:54:29> evals: 396/400 	best so far: [  6 127   6]	fitness: 0.9144
<10/26/18 22:56:39> evals: 397/400 	best so far: [  6 127  17]	fitness: 0.9144
<10/26/18 22:56:39> evals: 398/400 	best so far: [  6 127  17]	fitness: 0.9144
<10/26/18 23:00:07> evals: 399/400 	best so far: [  6 127  17]	fitness: 0.9144
<10/26/18 23:00:07> evals: 400/400 	best so far: [  6 127  17]	fitness: 0.9144
--best solution--
0.9144 [  6 127  17]
_________________________________________________________________
Layer (type)                 Output Shape              Param #   
=================================================================
conv2d_336 (Conv2D)          (None, 26, 26, 32)        320       
_________________________________________________________________
conv2d_337 (Conv2D)          (None, 24, 24, 64)        18496     
_________________________________________________________________
conv2d_338 (Conv2D)          (None, 22, 22, 64)        36928     
_________________________________________________________________
conv2d_339 (Conv2D)          (None, 20, 20, 64)        36928     
_________________________________________________________________
flatten_201 (Flatten)        (None, 25600)             0         
_________________________________________________________________
dense_293 (Dense)            (None, 64)                1638464   
_________________________________________________________________
dense_294 (Dense)            (None, 10)                650       
=================================================================
Total params: 1,731,786
Trainable params: 1,731,786
Non-trainable params: 0
_________________________________________________________________
--testing--
loss: 0.2556255049556494	accuracy: 0.9153

########################################################################
# End of output for job 189247.c009
# Date: Fri Oct 26 23:00:18 PDT 2018
…
