…
<10/26/18 22:36:55> evals: 397/400 	best so far: [114  22 204 177]	fitness: 0.9886
<10/26/18 22:38:41> evals: 398/400 	best so far: [114  22 204 177]	fitness: 0.9886
<10/26/18 22:40:59> evals: 399/400 	best so far: [114  22 204 177]	fitness: 0.9886
<10/26/18 22:42:49> evals: 400/400 	best so far: [114  22 204 177]	fitness: 0.9886
--best solution--
0.9886 [114  22 204 177]
_________________________________________________________________
Layer (type)                 Output Shape              Param #   
=================================================================
conv2d_504 (Conv2D)          (None, 24, 24, 32)        832       
_________________________________________________________________
conv2d_505 (Conv2D)          (None, 22, 22, 32)        9248      
_________________________________________________________________
flatten_321 (Flatten)        (None, 15488)             0         
_________________________________________________________________
dense_462 (Dense)            (None, 32)                495648    
_________________________________________________________________
dropout_280 (Dropout)        (None, 32)                0         
_________________________________________________________________
dense_463 (Dense)            (None, 10)                330       
=================================================================
Total params: 506,058
Trainable params: 506,058
Non-trainable params: 0
_________________________________________________________________
--testing--
loss: 0.031916043470369186	accuracy: 0.9895

########################################################################
# End of output for job 189240.c009
# Date: Fri Oct 26 22:42:58 PDT 2018
…
