…
<10/26/18 22:47:35> evals: 396/400 	best so far: [213 121 215]	fitness: 0.9902
<10/26/18 22:50:18> evals: 397/400 	best so far: [213 121 215]	fitness: 0.9902
<10/26/18 22:52:59> evals: 398/400 	best so far: [213 121 215]	fitness: 0.9902
<10/26/18 22:54:51> evals: 399/400 	best so far: [213 121 215]	fitness: 0.9902
<10/26/18 22:57:33> evals: 400/400 	best so far: [213 121 215]	fitness: 0.9902
--best solution--
0.9902 [213 121 215]
_________________________________________________________________
Layer (type)                 Output Shape              Param #   
=================================================================
conv2d_337 (Conv2D)          (None, 24, 24, 64)        1664      
_________________________________________________________________
conv2d_338 (Conv2D)          (None, 20, 20, 64)        102464    
_________________________________________________________________
conv2d_339 (Conv2D)          (None, 16, 16, 64)        102464    
_________________________________________________________________
conv2d_340 (Conv2D)          (None, 12, 12, 64)        102464    
_________________________________________________________________
dropout_148 (Dropout)        (None, 12, 12, 64)        0         
_________________________________________________________________
flatten_208 (Flatten)        (None, 9216)              0         
_________________________________________________________________
dense_321 (Dense)            (None, 10)                92170     
=================================================================
Total params: 401,226
Trainable params: 401,226
Non-trainable params: 0
_________________________________________________________________
--testing--
loss: 0.02640214405430015	accuracy: 0.9923

########################################################################
# End of output for job 189255.c009
# Date: Fri Oct 26 22:57:44 PDT 2018
…
